src/model_storage/model.pth (torch_old, 86844 bytes, 13 tensors)

emb.weight f4 [37, 100]
0.0 0.0 0.0 0.0 0.0 0.0 0.0 0.0
0.0 0.0 0.0 0.0 0.0 0.0 0.0 0.0
0.0 0.0 0.0 0.0 0.0 0.0 0.0 0.0
0.0 0.0 0.0 0.0 0.0 0.0 0.0 0.0
0.0 0.0 0.0 0.0 0.0 0.0 0.0 0.0
0.0 0.0 0.0 0.0 0.0 0.0 0.0 0.0
0.0 0.0 0.0 0.0 0.0 0.0 0.0 0.0
0.0 0.0 0.0 0.0 0.0 0.0 0.0 0.0
0.0 0.0 0.0 0.0 0.0 0.0 0.0 0.0
0.0 0.0 0.0 0.0 0.0 0.0 0.0 0.0
0.0 0.0 0.0 0.0 0.0 0.0 0.0 0.0
0.0 0.0 0.0 0.0 0.0 0.0 0.0 0.0
0.0 0.0 0.0 0.0 0.03154889 -0.7419016 -0.29778957 0.017165666
-0.1772239 -0.13342951 0.29395735 1.3849541 0.12091276 2.5417871 -0.64046 -1.9740105
-0.32956925 0.007958851 0.9262348 -1.8845556 0.1669616 0.45862234 -1.7662065 0.5859862
1.7510315 0.28072214 0.31096315 -0.65375805 -0.65762633 0.31844944 -0.5495865 -1.4649245
-2.0555017 1.8274626 1.3035277 -0.450132 1.3471215 1.6909801 -0.12444574 -1.6823665
-0.026608044 0.07404919 1.0517149 0.6778932 0.30665475 -0.7472333 0.7434943 0.88765764
2.2874365 0.96113855 -1.5296903 -0.29122463 -0.11395203 -0.31366795 -0.6293117 1.1385068
-0.99127394 0.1699892 1.2248735 -0.23453896 -1.0571605 -0.65426755 1.590885 -0.6994915
-0.89605623 0.0661913 -0.056280244 2.341223 -2.723433 0.509673 -0.8144687 -0.2460404
0.0045085433 2.0474298 -0.15754561 -0.21867052 -1.3519301 -0.057280593 -1.853978 -1.38489
-0.34539968 -1.1625037 0.14448078 0.16632313 0.75069964 0.9131729 -1.7277395 1.3055398
0.95932335 1.0599629 0.62986356 -1.2866658 -0.68748116 2.1382189 0.51141226 1.21909
0.19098009 -0.3425078 1.7955087 1.3914595 1.0785228 -0.6149516 -0.45885316 0.5674816
-0.09306965 -1.6538782 1.0923837 0.4771507 -1.3895824 -1.0844514 -0.16326453 0.23447253
0.17237487 -0.8171501 -0.25550583 -0.50332785 0.65749043 0.63982725 1.2200876 0.64595157
0.42370573 0.9244456 -0.3003766 -0.7112825 -0.62183124 0.42378592 -0.49386355 -0.44212088
-0.5732283 -0.18425521 0.034377184 -0.3768743 -0.114884526 0.8089688 0.054391753 -0.48041466
0.76944053 -1.4244357 0.6592854 -1.7943523 -0.96253157 0.08932468 -0.53493947 -0.3632243
1.5941768 -0.0054014935 -0.78292096 -1.1171843 0.31074023 -0.29946172 -0.0028211128 -0.8370819
-0.35158274 0.17955044 -0.8991356 -1.2903997 1.1495118 -1.893177 -0.40464655 1.1765913
00000000: 0000 0000 0000 0000 0000 0000 0000 0000
00000010: 0000 0000 0000 0000 0000 0000 0000 0000
00000020: 0000 0000 0000 0000 0000 0000 0000 0000
00000030: 0000 0000 0000 0000 0000 0000 0000 0000
00000040: 0000 0000 0000 0000 0000 0000 0000 0000
00000050: 0000 0000 0000 0000 0000 0000 0000 0000
00000060: 0000 0000 0000 0000 0000 0000 0000 0000
00000070: 0000 0000 0000 0000 0000 0000 0000 0000
00000080: 0000 0000 0000 0000 0000 0000 0000 0000
00000090: 0000 0000 0000 0000 0000 0000 0000 0000
000000a0: 0000 0000 0000 0000 0000 0000 0000 0000
000000b0: 0000 0000 0000 0000 0000 0000 0000 0000
000000c0: 0000 0000 0000 0000 0000 0000 0000 0000
000000d0: 0000 0000 0000 0000 0000 0000 0000 0000
000000e0: 0000 0000 0000 0000 0000 0000 0000 0000
000000f0: 0000 0000 0000 0000 0000 0000 0000 0000
00000100: 0000 0000 0000 0000 0000 0000 0000 0000
00000110: 0000 0000 0000 0000 0000 0000 0000 0000
00000120: 0000 0000 0000 0000 0000 0000 0000 0000
00000130: 0000 0000 0000 0000 0000 0000 0000 0000
00000140: 0000 0000 0000 0000 0000 0000 0000 0000
00000150: 0000 0000 0000 0000 0000 0000 0000 0000
00000160: 0000 0000 0000 0000 0000 0000 0000 0000
00000170: 0000 0000 0000 0000 0000 0000 0000 0000
00000180: 0000 0000 0000 0000 0000 0000 0000 0000
00000190: 6939 013d 43ed 3dbf e077 98be 039f 8c3c
000001a0: 2f7a 35be bfa1 08be 9481 963e 2d46 b13f
000001b0: 1ca1 f73d a4ac 2240 30f5 23bf 60ac fcbf
000001c0: 4dbd a8be d765 023c b91d 6d3f 1e39 f1bf
000001d0: fbf7 2a3e 8cd0 ea3e 0e13 e2bf 3103 163f
000001e0: cd21 e03f d0ba 8f3e 9036 9f3e b05c 27bf
000001f0: 335a 28bf ce0b a33e b3b1 0cbf a582 bbbf
00000200: 578d 03c0 4bea e93f ffd9 a63f b477 e6be
00000210: 7a6e ac3f 0972 d83f 68dd febd c957 d7bf
00000220: 1df9 d9bc 1aa7 973d 989e 863f 698a 2d3f
00000230: da01 9d3e ae4a 3fbf a455 3e3f 883d 633f
00000240: 5c65 1240 2d0d 763f e4cc c3bf 651b 95be
00000250: af5f e9bd 1699 a0be 921a 21bf 97ba 913f
00000260: 21c4 7dbf a611 2e3e a8c8 9c3f fb2a 70be
00000270: 0951 87bf 147e 27bf 1fa2 cb3f e011 33bf
00000280: f163 65bf 4e8f 873d 1d86 66bd 99d6 1540
00000290: ba4c 2ec0 ee79 023f 0581 50bf 04f2 7bbe
000002a0: 67bc 933b 1709 0340 a353 21be 2aeb 5fbe
000002b0: 0c0c adbf 0e9f 6abd 274f edbf 1344 b1bf
000002c0: 3ad8 b0be eccc 94bf c5f2 133e 9c50 2a3e
000002d0: da2d 403f b3c5 693f 9126 ddbf ee1b a73f
000002e0: 3796 753f ddac 873f bd3e 213f 77b1 a4bf
000002f0: c4fe 2fbf 94d8 0840 eaeb 023f 240b 9c3f
00000300: 4990 433e 2f5d afbe 3bd3 e53f 581b b23f
00000310: 090d 8a3f 786d 1dbf cdee eabe 7946 113f
00000320: 4d9b bebd 48b2 d3bf 3bd3 8b3f 194d f43e
00000330: d6dd b1bf 4ecf 8abf d12e 27be 9119 703e
00000340: 0a83 303e c030 51bf a9d1 82be 18da 00bf
00000350: 4b51 283f b8cb 233f d52b 9c3f 155d 253f
00000360: f5ef d83e 78a8 6c3f f6ca 99be 9c16 36bf
00000370: 5530 1fbf 78fa d83e afdb fcbe ab5d e2be
00000380: 17bf 12bf 66ad 3cbe 17cf 0c3d abf5 c0be
00000390: 9448 ebbd 9418 4f3f e3c9 5e3d e9f8 f5be
000003a0: 0efa 443f e953 b6bf eec6 283f 56ad e5bf
000003b0: 7868 76bf dcef b63d cbf1 08bf 89f8 b9be
000003c0: fc0d cc3f 03ff b0bb 826d 48bf e5ff 8ebf
000003d0: 5819 9f3e 0c53 99be 6be2 38bb 004b 56bf
000003e0: a702 b4be 12dc 373e c02d 66bf d12b a5bf
000003f0: 3423 933f a053 f2bf d52d cfbe 8b9a 963f

rnn.rnn_cell.weight_ih f4 [64, 100]
-0.027600404 0.08308427 0.016598305 0.093172655 -0.09051942 0.011873772 -0.08081883 0.13907726
0.024505107 -0.010714827 0.09670381 -0.12643553 0.04170916 0.03493778 -0.011998313 0.05817489
-0.03966278 -0.0913122 0.10099112 -0.023692492 0.0037286778 -0.0038874354 0.059100162 -0.036045827
-0.0075110826 -0.0077449274 0.07305516 -0.0292364 -0.060738582 -0.048083894 0.04442015 -0.049989507
-0.08471809 0.19032042 -0.12755814 0.06418489 -0.04745599 0.04097042 -0.08661647 -0.029114729
-0.042666517 0.053342246 0.038729608 -0.013997215 -0.07419386 0.120125376 0.090949744 -0.068613134
0.09234748 -0.042551823 -0.107594386 -0.14594 -0.06739712 -0.087233976 -0.12176518 0.1438072
0.10083736 -0.08750356 -0.04530643 0.07938068 -0.09597822 -0.031247128 0.08147137 -0.020488784
0.027769005 -0.11632201 -0.058500856 0.0871885 0.004136968 0.056482784 -0.033568833 0.100505434
-0.022446588 0.08864036 0.020810006 0.021933457 0.09438293 0.10421406 0.010770948 -0.0656677
0.08726148 -0.0072937855 0.09701269 -0.049683526 -0.037724026 -0.07118801 -0.07693081 -0.066693835
0.14767864 0.12214973 -0.020455489 -0.051568184 -0.050518073 0.007668171 -0.0010761906 0.00021399539
-0.048189867 0.0069902507 0.104772836 0.04873612 -0.0260326 -0.086688936 -0.0094650015 -0.017410561
0.12584572 0.09437288 0.07693883 -0.09654893 0.047969382 -0.09794586 0.07490188 -0.081986204
0.107125975 0.051178757 0.038009133 0.049281247 -0.07670407 0.033242915 0.07855559 0.024122786
-0.13076496 -0.05023183 -0.08154348 0.029119011 -0.02537742 0.07351215 0.10862662 0.115361154
0.042261943 0.07123878 -0.115151025 -0.089658506 0.00796833 -0.041590933 -0.08573811 -0.0294874
-0.083373636 -0.008762556 -0.029709898 -0.05501673 0.0742506 -0.086721964 0.036256324 0.021534136
0.011170561 0.13051328 -0.12305183 -0.08037916 -0.060908105 -0.07049926 -0.0067116385 0.078661926
-0.11032404 0.0223386 -0.090213574 0.033675198 -0.09257962 0.015568519 -0.03797956 -0.014740516
0.10942621 0.062426787 -0.063280076 -0.030022679 0.013268109 0.036669195 0.0008469063 -0.09243588
0.0015202669 -0.040329177 -0.075244285 0.10374033 -0.07278694 0.021771135 -0.08450171 0.0018022398
-0.03926242 0.07582572 -0.024981158 0.010142684 -0.0773141 -0.10721365 -0.07279817 0.004632452
0.109888725 -0.016198808 -0.036579575 -0.08506601 -0.020321604 0.08514417 -0.05900526 -0.11560182
-0.06556763 -0.085482 -0.06326083 -0.08256299 0.100768104 0.124699585 0.0024440498 -0.036815684
0.098839216 -0.022159364 0.023507006 0.009204491 -0.11664899 0.080157824 -0.049439065 -0.02653076
-0.1322766 -0.042366028 0.03149367 0.028329471 0.0754955 -0.013046188 0.036751945 -0.07774062
-0.097341284 -0.050618842 -0.066260874 -0.067481354 -0.12596308 0.028696597 -0.039164845 0.11123031
0.04530746 -0.04077922 0.09893961 -0.027819412 -0.059462823 0.10259572 -0.071544886 -0.016693532
-0.12548909 -0.0424846 0.04637669 -0.043487802 0.16013134 0.033670813 -0.12740217 -0.081805795
0.030539993 0.039804112 -0.0007228963 0.0031816163 -0.10285785 0.0318963 -0.09806768 -0.047130924
-0.16358681 -0.017326856 0.0056643127 -0.022552751 -0.008814141 -0.12625358 -0.015083153 -0.09784944
00000000: 3e1a e2bc 1628 aa3d 2bf9 873c 4ed1 be3d
00000010: 3f62 b9bd 368a 423c 5884 a5bd 456a 0e3e
00000020: efbe c83c 3e8d 2fbc a60c c63d 5178 01be
00000030: 39d7 2a3d eb1a 0f3d 9294 44bc cb48 6e3d
00000040: 7075 22bd e401 bbbd 6fd4 ce3d c216 c2bc
00000050: d55c 743b 58c4 7ebb 0313 723d caa4 13bd
00000060: 871f f6bb 29c9 fdbb f29d 953d 2d81 efbc
00000070: 05c9 78bd 9ef3 44bd e7f1 353d ccc1 4cbd
00000080: ae80 adbd 5be3 423e 9a9e 02be 5e73 833d
00000090: 3661 42bd 99d0 273d fa63 b1bd 0382 eebc
000000a0: 16c3 2ebd 667d 5a3d f0a2 1e3d 9354 65bc
000000b0: f3f2 97bd 4b04 f63d dc43 ba3d 0b85 8cbd
000000c0: ad20 bd3d d24a 2ebd 725a dcbd 4c71 15be
000000d0: 8007 8abd baa7 b2bd 0660 f9bd 3242 133e
000000e0: d183 ce3d 1135 b3bd 3c93 39bd 5792 a23d
000000f0: 3b90 c4bd faf9 ffbc 76da a63d 18d8 a7bc
00000100: d37b e33c 3c3a eebd 989e 6fbd e28f b23d
00000110: 678f 873b 7e5a 673d 797f 09bd cbd5 cd3d
00000120: e8e1 b7bc 1489 b53d bf79 aa3c cbad b33c
00000130: d64b c13d 2e6e d53d a178 303c c97c 86bd
00000140: 26b6 b23d b500 efbb 97ae c63d f480 4bbd
00000150: 8284 1abd 05cb 91bd e78d 9dbd c796 88bd
00000160: 1239 173e a329 fa3d 4592 a7bc 2939 53bd
00000170: 0aec 4ebd 4845 fb3b f70e 8dba f363 6039
00000180: bd62 45bd 790e e53b 2493 d63d 879f 473d
00000190: 5242 d5bc f889 b1bd 1813 1bbc 98a0 8ebc
000001a0: b3dd 003e 9246 c13d 1b92 9d3d 72bb c5bd
000001b0: 8b7b 443d d797 c8bd 2866 993d 62e8 a7bd
000001c0: dd64 db3d d1a0 513d 77af 1b3d 22db 493d
000001d0: 0617 9dbd b929 083d c1e1 a03d 269d c53c
000001e0: 40e7 05be e4bf 4dbd 4500 a7bd fe8a ee3c
000001f0: 4fe4 cfbc 8a8d 963d a277 de3d 7842 ec3d
00000200: dc1a 2d3d a3e5 913d 4dd4 ebbd e19e b7bd
00000210: 998d 023c 415b 2abd 7697 afbd 8f8f f1bc
00000220: ccbf aabd d390 0fbc 2c62 f3bc 3959 61bd
00000230: b310 983d 499b b1bd 8381 143d 5b68 b03c
00000240: bb04 373c 46a5 053e 9902 fcbd d49d a4bd
00000250: c77a 79bd eb61 90bd 4eed dbbb 8119 a13d
00000260: 92f1 e1bd 71ff b63c e5c1 b8bd 01ef 093d
00000270: 629a bdbd 1a13 7f3c 7590 1bbd 3582 71bc
00000280: d91a e03d 3bb3 7f3d fc98 81bd 1ff2 f5bc
00000290: 7c62 593c 7032 163d eb02 5e3a 064f bdbd
000002a0: b143 c73a 3530 25bd ad19 9abd cf75 d43d
000002b0: 5211 95bd 6159 b23c 3c0f adbd 2239 ec3a
000002c0: a2d1 20bd 844a 9b3d 49a5 ccbc 802d 263c
000002d0: db56 9ebd d592 dbbd 3517 95bd d3cb 973b
000002e0: 570d e13d 5db3 84bc 77d4 15bd 1737 aebd
000002f0: 7e79 a6bc 1160 ae3d 80af 71bd a6c0 ecbd
00000300: 5248 86bd 3011 afbd e58e 81bd c916 a9bd
00000310: 825f ce3d 7f62 ff3d 5a2c 203b 0bcc 16bd
00000320: 376c ca3d 8e87 b5bc c491 c03c 6fce 163c
00000330: aae5 eebd c929 a43d 9e80 4abd 0957 d9bc
00000340: 8473 07be 0088 2dbd 82ff 003d 3513 e83c
00000350: 629d 9a3d aebf 55bc 3589 163d 7936 9fbd
00000360: de5a c7bd b455 4fbd c8b3 87bd aa33 8abd
00000370: 77fc 00be 2015 eb3c 516b 20bd b7cc e33d
00000380: 5194 393d 1d08 27bd daa0 ca3d 89e5 e3bc
00000390: 4a8f 73bd b41d d23d 2086 92bd e0c0 88bc
000003a0: 3680 00be 5504 2ebd 7cf5 3d3d 4420 32bd
000003b0: 78f9 233e 68ea 093d b775 02be cc89 a7bd
000003c0: 022f fa3c a309 233d c080 3dba aa82 503b
000003d0: 23a7 d2bd b2a5 023d b5d7 c8bd 5b0c 41bd
000003e0: 4d83 27be 0df1 8dbc b39b b93b 8cc0 b8bc
000003f0: 3069 10bc 9e48 01be 541f 77bc 4a65 c8bd

rnn.rnn_cell.weight_hh f4 [64, 64]
-0.18296407 0.022194928 0.03573522 0.00025990646 0.14722236 -0.111690015 0.109384865 0.054655634
0.036822554 -0.17974639 0.04277854 0.04419467 0.031811967 -0.03054371 0.0799409 -0.097705185
0.15274478 0.2018536 0.07418692 -0.1256471 -0.056305826 0.123204514 -0.14025198 -0.056808684
0.19758569 -0.1261464 -0.15950896 0.07211499 -0.09222751 -0.17889272 0.10280503 0.13018714
0.09126275 -0.05933822 -0.061081186 -0.036422055 0.0643344 0.06992924 -0.021316249 0.13194633
0.024022356 0.14906907 -0.1199837 -0.13578871 0.036408905 0.12119227 0.007765991 -0.042574495
-0.12669894 0.036132522 -0.08736035 0.089819424 -0.046230927 -0.068329155 0.10854588 0.20942207
0.1107632 0.078184165 0.03499783 -0.17159292 0.16093497 0.012890935 0.051608007 0.052641634
0.16258037 0.022415722 0.1345043 0.014677337 -0.1550288 -0.1275981 -0.15848187 -0.20582964
0.025322769 0.01111708 0.1284132 -0.04507265 0.12210601 -0.020800259 -0.01931775 -0.000945824
-0.07194182 -0.15184744 -0.094684444 -0.00034264236 -0.07645372 -0.016557513 0.0034479164 -0.07037166
-0.12669714 0.07926147 -0.04374775 -0.022357171 0.09862958 0.021992084 -0.025816716 -0.054068804
-0.028565371 -0.0776644 -0.012768737 0.1442715 -0.21378249 0.038979106 -0.06364486 -0.1498434
-0.09367305 -0.06266564 -0.16694532 0.06681704 0.071076006 -0.047854006 0.0022460665 -0.015283538
-0.058661174 -0.008202408 -0.048845854 0.11113416 0.049988907 -0.09844293 0.098749615 -0.009526572
0.018896474 0.03364714 0.05710948 0.10718344 -0.12611263 0.068661354 -0.0032858572 0.034488782
-0.031836286 0.058451705 0.18677141 -0.062960654 -0.10433239 -0.0809873 0.045359362 -0.07054321
-0.08101338 -0.020078741 0.018495802 0.014900524 -0.005687896 -0.08938454 -0.01596326 -0.05912694
0.16898175 0.09375284 -0.22292125 0.00040179957 0.08351211 0.05941755 0.052529525 0.17806238
-0.04958054 0.03553952 -0.050268732 0.07083463 -0.12937255 0.07446872 0.13240688 0.034945887
0.058968015 -0.09568006 0.051645067 -0.042268313 -0.14395377 -0.062117554 -0.16352929 -0.0151393125
-0.18161748 0.095002346 -0.12842487 0.09429721 -0.16570091 0.1297921 0.06596063 -0.1526342
0.12638082 0.011198879 0.14583464 0.1085481 0.13280445 -0.06197048 -0.035083745 -0.006532109
0.15635633 -0.08439384 -0.024415705 0.091596976 -0.019555083 0.055196717 -0.08403695 -0.022245398
0.12457019 -0.11566245 -0.12105382 0.14299303 -0.058860578 0.19182873 -0.14002074 0.02930849
0.0666515 0.037484046 0.06551784 0.007481077 0.1920621 -0.15965076 -0.13703345 -0.039077703
-0.044640012 -0.032890346 -0.1416479 -0.04676635 -0.08343211 0.027122285 -0.067915834 0.15382141
0.17935655 -0.014600156 -0.00036446896 -0.0027779993 -0.090160124 -0.0058243466 -0.14282826 -0.06651641
0.07394098 -0.077990316 0.013719185 -0.20112908 -0.022239916 0.12980454 -0.043731432 -0.007570491
0.065696344 -0.10925731 -0.22272538 -0.102140374 0.024548506 0.05200315 -0.1662227 0.12562782
0.14780664 0.13324217 0.10020414 -0.22083315 0.037522327 -0.10229363 -0.00033664683 -0.10316858
0.16757126 -0.072771184 -0.030205797 0.07219428 0.011429819 -0.017217325 -0.13536263 -0.108210914
00000000: ef5a 3bbe 23d2 b53c 185f 123d 0e44 8839
00000010: 75c1 163e bcbd e4bd 2c05 e03d 96de 5f3d
00000020: 3fd3 163d 700f 38be 8d38 2f3d 7805 353d
00000030: 444d 023d cd36 fabc 0eb8 a33d a819 c8bd
00000040: 2169 1c3e b6b2 4e3e 50ef 973d a2a9 00be
00000050: f0a0 66bd a652 fc3d 379e 0fbe 39b0 68bd
00000060: e753 4a3e 862c 01be 5156 23be 06b1 933d
00000070: c7e1 bcbd a72f 37be 728b d23d c74f 053e
00000080: f7e7 ba3d a20c 73bd 4430 7abd 4b2f 15bd
00000090: c1c1 833d 1037 8f3d 6a9f aebc f01c 073e
000000a0: 88ca c43c 90a5 183e 04ba f5bd 320c 0bbe
000000b0: 8121 153d a733 f83d db79 fe3b 9862 2ebd
000000c0: 5ebd 01be b2ff 133d fce9 b2bd 3ff3 b73d
000000d0: a45c 3dbd 28f0 8bbd 4d4d de3d bd72 563e
000000e0: d1d7 e23d 051f a03d e259 0f3d 0eb6 2fbe
000000f0: 23cc 243e 8034 533c eb62 533d c19e 573d
00000100: 787b 263e 2da1 b73c 7fbb 093e 3779 703c
00000110: dfbf 1ebe 14a9 02be 1249 22be 01c5 52be
00000120: b271 cf3c 6a24 363c c07e 033e 199e 38bd
00000130: b712 fa3d 4e65 aabc 4240 9ebc 2df1 77ba
00000140: 3c56 93bd e57d 1bbe ebe9 c1bd aea4 b3b9
00000150: c593 9cbd 9fa3 87bc 70f6 613b 041f 90bd
00000160: e5bc 01be d653 a23d d730 33bd 6326 b7bc
00000170: 4efe c93d be28 b43c 947d d3bc 4077 5dbd
00000180: ed01 eabc 830e 9fbd f733 51bc e8bb 133e
00000190: cce9 5abe 8ea8 1f3d 3d58 82bd 8c70 19be
000001a0: a8d7 bfbd d856 80bd b7f3 2abe 5fd7 883d
000001b0: 4c90 913d 9002 44bd be32 133b ce67 7abc
000001c0: b346 70bd 6563 06bc 9712 48bd 4e9a e33d
000001d0: 2bc1 4c3d 729c c9bd 3d3d ca3d 5715 1cbc
000001e0: c7cc 9a3c 95d1 093d a1eb 693d fe82 db3d
000001f0: ab23 01be 539e 8c3d 8957 57bb 1c44 0d3d
00000200: c466 02bd 0e6b 6f3d 0141 3f3e 84f1 80bd
00000210: 38ac d5bd abdc a5bd bdca 393d f578 90bd
00000220: 58ea a5bd 2c7c a4bc 8284 973c 5421 743c
00000230: 8861 babb 3e0f b7bd 62c5 82bc 172f 72bd
00000240: 8d09 2d3e 7d01 c03d 7845 64be a0a8 d239
00000250: 6608 ab3d d15f 733d 3329 573d fc55 363e
00000260: f714 4bbd e391 113d 96e6 4dbd bf11 913d
00000270: 3d7a 04be 0e83 983d ab95 073e 6b23 0f3d
00000280: 7288 713d e8f3 c3bd c789 533d 8a21 2dbd
00000290: 9e68 13be fa6e 7ebd 3974 27be e10a 78bc
000002a0: eff9 39be 9790 c23d cf81 03be e51e c13d
000002b0: 80ad 29be 38e8 043e 5e16 873d 244c 1cbe
000002c0: f969 013e 817b 373c ad55 153e 774e de3d
000002d0: e4fd 073e c2d4 7dbd f9b3 0fbd 4d0b d6bb
000002e0: e01b 203e add6 acbd 7203 c8bc 3297 bb3d
000002f0: fb31 a0bc f415 623d 901b acbd fb3b b6bc
00000300: a81e ff3d 6fe0 ecbd 11eb f7bd c46c 123e
00000310: ca17 71bd c06e 443e 9961 0fbe 5c18 f03c
00000320: 9580 883d df88 193d 382e 863d d323 f53b
00000330: edab 443e 7d7b 23be 7f52 0cbe f10f 20bd
00000340: 72d8 36bd 07b8 06bd 260c 11be 128e 3fbd
00000350: 74de aabd 8e2f de3c 7517 8bbd 5c83 1d3e
00000360: 3ea9 373e 7e35 6fbc 3216 bfb9 180f 36bb
00000370: dfa5 b8bd 29da bebb 9241 12be c139 88bd
00000380: 5e6e 973d 63b9 9fbd 6fc6 603c c8f4 4dbe
00000390: 7c30 b6bc 7beb 043e bb1f 33bd e211 f8bb
000003a0: ce8b 863d 4cc2 dfbd 1f12 64be f92e d1bd
000003b0: f319 c93c 4101 553d 4936 2abe 94a4 003e
000003c0: a05a 173e a370 083e d437 cd3d 1622 62be
000003d0: 03b1 193d 537f d1bd f97f b0b9 0c4a d3bd
000003e0: cd97 2b3e 0f09 95bd 2672 f7bc 98da 933d
000003f0: 2344 3b3c 590b 8dbc 809c 0abe af9d ddbd

rnn.rnn_cell.bias_ih f4 [64]
0.00074748934 -0.11137647 -0.06745786 0.03347442 0.028000299 0.049591508 0.04035473 -0.03872702
0.00949449 0.0031237686 -0.121397585 0.023233317 -0.008753914 -0.10929123 -0.092206284 0.073091365
-0.07988511 -0.110108145 0.098877795 -0.047016528 0.006763837 -0.110100515 0.07846507 0.055200923
-0.04294963 -0.13250726 0.09779362 0.030967176 0.08826579 -0.0599971 0.06438694 -0.019125313
-0.027698588 0.083793364 0.0335926 0.059103027 -0.025703553 0.09248514 -0.0073647774 -0.077814944
-0.101168394 0.12720455 -0.0888973 0.014988248 0.07618876 0.07334374 0.1092937 -0.039648864
0.09233473 -0.122788124 -0.09839726 0.08345326 0.069544956 0.13937555 -0.054945655 0.13261905
-0.12450318 -0.011732466 0.105623 0.13590185 -0.11321047 -0.032914475 0.039683912 -0.093562596
00000000: 29f3 433a 5919 e4bd 5927 8abd 791c 093d
00000010: e260 e53c 7720 4b3d 004b 253d 39a0 1ebd
00000020: c78e 1b3c 24b8 4c3b 4c9f f8bd cc53 be3c
00000030: 946c 0fbc 15d4 dfbd a6d6 bcbd edb0 953d
00000040: ce9a a3bd 6180 e1bd 7180 ca3d 6794 40bd
00000050: 2da3 dd3b 617c e1bd 4bb2 a03d 5d1a 623d
00000060: f4eb 2fbd fcaf 07be 0548 c83d e0ae fd3c
00000070: b2c4 b43d 85bf 75bd 4ddd 833d b0ac 9cbc
00000080: 26e8 e2bc db9b ab3d 6598 093d 0416 723d
00000090: 4290 d2bc d968 bd3d 3b54 f1bb 715d 9fbd
000000a0: 6031 cfbd e941 023e ca0f b6bd 4591 753c
000000b0: da08 9c3d 3e35 963d 60d5 df3d d966 22bd
000000c0: fe19 bd3d 5778 fbbd 8184 c9bd 8be9 aa3d
000000d0: 966d 8e3d 77b8 0e3e b20e 61bd 4acd 073e
000000e0: 86fb febd 8739 40bc df50 d83d db29 0b3e
000000f0: e4da e7bd 54d1 06bd 998b 223d bf9d bfbd

rnn.rnn_cell.bias_hh f4 [64]
0.008709878 -0.058669157 -0.012786975 0.054390904 0.09124518 0.12821196 0.009049487 -0.06861067
0.021867363 0.03575462 0.09544252 -0.09241833 -0.055866834 -0.094644405 0.077593476 -0.018321246
0.012943305 -0.007942162 -0.04730412 -0.06706807 -0.07662485 -0.15939085 0.008235317 0.057774212
0.08982752 0.034548767 0.09389689 0.06579574 0.15124947 0.0638074 0.07611244 -0.11112728
0.040880535 0.066319846 -0.034196895 0.11587965 0.047225926 -0.0070932736 -0.123543784 -0.08474531
-0.0044765277 0.12935902 0.08171199 -0.08951888 -0.09309727 0.057556227 0.066642575 0.050913703
-0.06465465 0.001396774 -0.037951894 -0.0819153 -0.040518485 0.09684723 -0.08812328 -0.0026399838
-0.055149015 0.00062772934 -0.0810956 0.08321167 -0.09056408 0.09500964 0.06447054 0.021653825
00000000: e0b3 0e3c 124f 70bd 7680 51bc ffc8 5e3d
00000010: c1de ba3d ff49 033e 4d44 143c c083 8cbd
00000020: 2f23 b33c 7073 123d 5e77 c33d d245 bdbd
00000030: 9fd4 64bd edd4 c1bd 54e9 9e3d 7016 96bc
00000040: 2810 543c d81f 02bc f7c1 41bd fc5a 89bd
00000050: 7ded 9cbd 5b37 23be 6ced 063c a7a4 6c3d
00000060: 7ef7 b73d 0283 0d3d 034d c03d ebbf 863d
00000070: 24e1 1a3e 74ad 823d d7e0 9b3d b396 e3bd
00000080: 5972 273d b3d2 873d 0b12 0cbd 4f52 ed3d
00000090: f96f 413d b16e e8bb 8604 fdbd f38e adbd
000000a0: d6af 92bb b176 043e 9e58 a73d ad55 b7bd
000000b0: c8a9 bebd 14c0 6b3d e77b 883d e38a 503d
000000c0: a869 84bd f513 b73a 7273 1bbd 35c3 a7bd
000000d0: b6f6 25bd d757 c63d fa79 b4bd 9403 2dbb
000000e0: efe3 61bd 348e 243a 7315 a6bd e16a aa3d
000000f0: a979 b9bd 6a94 c23d 2109 843d 5d63 b13c

fc1.weight f4 [64, 64]
-0.031404156 0.10080631 0.033596065 0.16729459 -0.011361163 -0.10279588 -0.0103564095 -0.17893195
-0.11050525 0.009336821 -0.0695488 0.0032152147 -0.032776233 -0.059204493 0.18044648 -0.04970683
0.10611578 0.1144577 -0.124322824 0.122066475 -0.051336177 -0.044569924 -0.03114065 -0.16349612
-0.014530322 -0.06919966 0.010605709 0.11376018 0.14082234 0.019468036 0.1506766 -0.17620933
-0.034994066 0.06634931 0.050633356 -0.032177042 -0.038208384 0.018224215 0.047881506 -0.014681145
-0.012054703 0.050208274 -0.022682926 0.065620445 0.16730921 0.06895243 0.16152023 0.054378655
0.011301834 0.044868868 0.13518363 0.16331261 0.09895428 -0.0019086647 -0.056811746 0.091791876
-0.06847325 0.03646342 0.09542154 -0.06059292 0.1057783 -0.13155442 -0.037922416 0.031303238
-0.0636176 0.11789026 -0.053342994 0.011963649 -0.06924355 0.06695901 0.055103745 0.14010867
-0.056104686 0.07278889 0.091714725 -0.04091334 -0.0020292401 0.014978139 0.09597009 0.043350935
-0.08230672 0.100062124 -0.044696078 -0.021854883 0.043692276 -0.043329947 -0.06278419 0.07445374
-0.047822166 0.15103015 0.10451097 -0.025987366 -0.13243942 0.07919107 -0.08212351 0.042956334
-0.061813023 0.12321383 0.13999705 -0.10613994 -0.019538358 -0.09138539 -0.04162654 0.02542076
0.048517577 -0.14160044 -0.14836325 0.056116447 -0.034617994 -0.06712735 -0.03355314 0.13463472
-0.07020587 0.043883216 0.066344544 0.035831604 0.0665085 0.1425688 -0.10740133 0.049285404
-0.034669552 0.09113179 0.009021203 -0.06675256 0.0699519 -0.05275271 0.14823048 0.06996328
0.054899 -0.025162002 0.14748386 0.16853768 0.056200977 0.06805404 -0.060277782 0.021951273
0.14156875 -0.18013251 0.1926702 0.12522215 0.17897724 -0.02387195 -0.08226288 -0.072698414
0.08858302 -0.13521776 0.015170915 -0.023618532 -0.013229115 0.15766141 -0.12507589 0.017715214
0.06789025 -0.02982746 0.051407367 0.013570295 -0.0701365 -0.017451623 0.13102813 0.018417666
-0.16831024 0.047222216 0.028339887 -0.03080029 0.047671568 0.012149903 -0.11379657 -0.076584555
-0.10782746 -0.075859636 -0.07971472 0.10009062 -0.0699136 0.04617328 0.080571465 -0.0690967
0.05917124 -0.11095812 -0.07389339 -0.10924867 -0.10568519 -0.0988981 -0.112955034 -0.051691283
-0.039867617 -0.09308703 0.043547112 0.14003642 -0.0021216134 -0.22239712 -0.0636192 -0.0172657
-0.08998922 -0.011404938 0.061113678 -0.042115122 -0.037293922 0.09636478 0.02518239 0.21029672
0.028847802 0.055448007 -0.081694506 -0.011612814 -0.010521854 -0.099094704 0.062448554 0.04653811
0.14368224 -0.021181148 -0.00378151 0.06412526 -0.05793403 -0.071792446 -0.013015111 0.17554477
-0.031989545 0.120822325 0.10803698 -0.16587505 -0.015201055 0.10538187 -0.0586348 0.10783699
0.11025415 0.055923898 0.09778722 -0.04735658 0.041530356 0.074622646 0.082510225 0.010241369
-0.0063707484 -0.13323157 -0.08207786 0.021194085 -0.017089354 0.053041708 -0.11956567 0.15786117
-0.13439733 0.111805074 0.067012616 0.08781223 0.09699226 0.024565104 0.023620076 -0.07177625
0.029360954 0.06772834 0.064403206 -0.14071047 -0.09596452 -0.012063866 0.16308236 -0.08550611
00000000: a5a1 00bd 8a73 ce3d 079c 093d 464f 2b3e
00000010: 2c24 3abc a586 d2bd eead 29bc f039 37be
00000020: 9450 e2bd 77f9 183c 9a6f 8ebd 5ab6 523b
00000030: 5f40 06bd 6980 72bd f6c6 383e 6499 4bbd
00000040: 3b53 d93d cc68 ea3d f79c febd fdfd f93d
00000050: e245 52bd f48e 36bd ad1a ffbc 876b 27be
00000060: 9610 6ebc 8db8 8dbd 91c3 2d3c 19fb e83d
00000070: bb33 103e 6e7b 9f3c f74a 1a3e 3870 34be
00000080: f055 0fbd 26e2 873d ec64 4f3d 13cc 03bd
00000090: 6580 1cbd f34a 953c 661f 443d 2f89 70bc
000000a0: 1781 45bc 31a7 4d3d 8bd1 b9bc 0364 863d
000000b0: 1b53 2b3e ee36 8d3d 8f65 253e 27bc 5e3d
000000c0: 542b 393c 6bc8 373d 946d 0a3e 6c3b 273e
000000d0: 8ba8 ca3d 292c faba 6fb3 68bd 61fd bb3d
000000e0: b43b 8cbd ab5a 153d 5e6c c33d 4830 78bd
000000f0: 4ba2 d83d 34b6 06be 8954 1bbd d337 003d
00000100: f249 82bd 7370 f13d 2f7e 5abd 2e03 443c
00000110: 90cf 8dbd ce21 893d 77b4 613d a678 0f3e
00000120: 07ce 65bd 5712 953d eed4 bb3d bf94 27bd
00000130: 00fd 04bb de66 753c f78b c43d c090 313d
00000140: 6d90 a8bd 5fed cc3d 3c13 37bd 0309 b3bc
00000150: acf6 323d be7a 31bd ff94 80bd 347b 983d
00000160: 2de1 43bd a6a7 1a3e d909 d63d 75e3 d4bc
00000170: 339e 07be ed2e a23d 5f30 a8bd fbf2 2f3d
00000180: a72f 7dbd 8857 fc3d 635b 0f3e e65f d9bd
00000190: e80e a0bc 4328 bbbd 9780 2abd 333f d03c
000001a0: 5eba 463d b5ff 10be 89ec 17be 5cda 653d
000001b0: 99cb 0dbd 107a 89bd 046f 09bd afdd 093e
000001c0: 18c8 8fbd e3be 333d a6df 873d 29c4 123d
000001d0: 9c35 883d 8efd 113e 3af5 dbbd 7edf 493d
000001e0: a901 0ebd 4ea3 ba3d abcd 133c 91b5 88bd
000001f0: f142 8f3d 3a13 58bd bbc9 173e e848 8f3d
00000200: c6dd 603d 8b20 cebc 0206 173e 2495 2c3e
00000210: ff32 663d eb5f 8b3d d6e5 76bd 28d3 b33c
00000220: 66f7 103e a874 38be 564b 453e 3c3a 003e
00000230: cf45 373e 1c8f c3bc 7179 a8bd e8e2 94bd
00000240: 046b b53d 8676 0abe 6e8f 783c a77b c1bc
00000250: eebe 58bc fe71 213e e513 00be 7f1f 913c
00000260: 0b0a 8b3d b858 f4bc 8890 523d f155 5e3c
00000270: baa3 8fbd b5f6 8ebc 3d2c 063e a5e0 963c
00000280: 8559 2cbe 156c 413d 0d29 e83c e450 fcbc
00000290: 4343 433d 6310 473c 2d0e e9bd 5dd8 9cbd
000002a0: a5d4 dcbd 4c5c 9bbd 7941 a3bd 50fc cc3d
000002b0: dd2e 8fbd 3120 3d3d a702 a53d 9282 8dbd
000002c0: 8b5d 723d 033e e3bd 6b55 97bd c4bd dfbd
000002d0: 7a71 d8bd 168b cabd f854 e7bd 3dba 53bd
000002e0: 3a4c 23bd 6aa4 bebd 755e 323d b565 0f3e
000002f0: c40a 0bbb 12bc 63be c84a 82bd cc70 8dbc
00000300: 454c b8bd c7db 3abc 5652 7a3d e880 2cbd
00000310: 83c1 18bd e65a c53d 4d4b ce3c 0658 573e
00000320: 3a52 ec3c 731d 633d 734f a7bd ac43 3ebc
00000330: db63 2cbc 2af2 cabd 0eca 7f3d bf9e 3e3d
00000340: 7021 133e 1684 adbc 36d3 77bb 1b54 833d
00000350: 3c4c 6dbd eb07 93bd 553d 55bc 02c2 333e
00000360: 7807 03bd b271 f73d 7e42 dd3d 26db 29be
00000370: d90d 79bc 73d2 d73d 0b2b 70bd a4d9 dc3d
00000380: eecc e13d 7510 653d aa44 c83d f9f8 41bd
00000390: bc1b 2a3d c2d3 983d 1ffb a83d 6acb 273c
000003a0: b6c1 d0bb db6d 08be 7018 a8bd 389f ad3c
000003b0: f9fe 8bbc 4342 593d d9de f4bd 5ca6 213e
000003c0: 749f 09be 0ffa e43d e93d 893d e6d6 b33d
000003d0: e1a3 c63d c23c c93c e47e c13c 6dff 92bd
000003e0: 6286 f03c 28b5 8a3d d4e5 833d 6816 10be
000003f0: 0c89 c4bd 85a7 45bc 10ff 263e d41d afbd

fc1.bias f4 [64]
0.04478615 0.05437453 -0.0035401322 0.09822964 0.04904402 -0.020959074 -0.036597025 0.08281999
-0.04120766 -0.021493046 -0.020510146 0.011126934 -0.086132914 -0.00863047 -0.07503469 0.03388147
-0.07907021 -0.08486641 -0.031383466 0.111630775 -0.012012799 0.038632777 0.018251099 0.08669681
0.047899578 -0.038086332 0.06577077 -0.063695036 0.0683949 -0.052675687 0.110424794 0.06608958
-0.07582761 0.10832326 -0.104790606 -0.14823548 0.10754172 -0.038360614 -0.06342171 -0.113868445
0.107197866 -0.0052493582 -0.08302696 -0.045029547 0.06529293 -0.003410063 0.03139598 -0.032395493
0.04657848 0.0591274 0.041011196 0.113465786 -0.028833384 0.028035529 -0.031463683 -0.047842037
-0.10326346 -0.062420912 -0.09622873 -0.010570256 -0.13073508 -0.083913 -0.06354237 0.09827848
00000000: af71 373d d4b7 5e3d 9001 68bb 9f2c c93d
00000010: 62e2 483d 5db2 abbc c3e6 15bd 879d a93d
00000020: 5dc9 28bd 2f12 b0bc e504 a8bc be4d 363c
00000030: 7466 b0bd d166 0dbc caab 99bd 4cc7 0a3d
00000040: 90ef a1bd 71ce adbd f38b 00bd ad9e e43d
00000050: 55d1 44bc 673d 1e3d 5483 953c 198e b13d
00000060: 5932 443d 6a00 1cbd d3b2 863d 8b72 82bd
00000070: a012 8c3d 76c2 57bd 6526 e23d f959 873d
00000080: 824b 9bbd 96d8 dd3d 759c d6bd 0bcb 17be
00000090: d53e dc3d 0520 1dbd 3ee3 81bd dc33 e9bd
000000a0: 8e8a db3d cf02 acbb 0a0a aabd e770 38bd
000000b0: 4db8 853d 5d7b 5fbb 1299 003d 23b1 04bd
000000c0: 14c9 3e3d 932f 723d 5bfb 273d c060 e83d
000000d0: fd33 ecbc c4aa e53c 10e0 00bd 03f6 43bd
000000e0: cb7b d3bd 12ad 7fbd 9213 c5bd de2e 2dbc
000000f0: 6bdf 05be 94da abbd 8122 82bd 3a46 c93d

fc2.weight f4 [32, 64]
-0.042604312 0.0035682356 0.036714036 -0.030812867 -0.07967417 0.031166883 -0.033596385 0.008197196
0.09961149 0.09055543 0.08130437 0.042490978 0.0041384236 -0.08055062 -0.12623848 -0.076308034
-0.112955876 0.12773636 0.09084596 -0.082448915 0.04246579 -0.11217079 0.090181224 -0.12957223
-0.10444076 -0.072681025 -0.06839949 0.02568375 -0.015922477 0.089820266 0.058990374 0.039174102
0.04861386 0.05731148 -0.02177671 -0.028996062 -0.08078509 0.08325273 0.070688926 0.059388865
-0.010191531 0.04080179 -0.12687367 0.05065037 0.051053457 0.029301887 -0.10278389 0.025949983
-0.12950012 -0.122857295 -0.083950676 -0.012481458 0.13687737 -0.032364257 0.078095295 -0.0799467
0.0032075671 -0.008814553 -0.019976346 -0.1141778 -0.05295398 0.024817802 -0.123087905 0.039315365
0.023888316 0.018547093 0.091928124 -0.06155834 0.027382893 -0.08310105 0.15189682 0.04509438
-0.03114549 -0.07163803 -0.042099006 0.0512265 -0.039870143 -0.00920602 0.023646388 0.013122365
0.07384037 -0.03833046 -0.04848942 0.1587095 0.03135147 -0.18084896 -0.13968162 -0.020481491
0.04598751 -0.109166026 0.120511554 -0.05412674 -0.18034251 0.04194898 -0.20923619 -0.051132858
-0.06932962 0.11318944 -0.0051441547 -0.07833111 0.13485554 -0.13227451 -0.10280445 0.06391647
0.14395088 -0.15398563 -0.034797058 -0.09424966 0.06529462 -0.08149217 0.14682993 -0.071762495
0.16302553 0.059826043 0.14102083 0.020106366 -0.07286285 -0.058896262 -0.094160825 -0.1444545
0.096542075 0.14902328 -0.039243933 -0.12263014 -0.006966244 -0.13544998 0.20597528 -0.14165606
0.12175266 -0.1261358 -0.088867016 -0.068545945 -0.06037459 0.00840496 -0.05180584 0.029506432
0.10203929 -0.15021554 -0.00864823 -0.0577693 -0.026435064 0.008060478 -0.059822626 0.09081202
-0.027017998 0.035718005 -0.060728613 0.106047325 0.037435737 0.03784708 -0.028053245 -0.04509295
0.11703587 0.0013942589 -0.025560431 -0.11588133 0.030188719 0.07989619 -0.064802006 0.08741609
0.09419328 0.13949473 -0.05160145 -0.057025116 -0.06873687 0.121332824 0.092912346 -0.12565625
0.08097132 0.09250823 0.091166526 0.036862615 0.01760577 -0.0016175988 -0.1128482 0.0330806
-0.008259377 0.078349724 0.0784319 0.11774994 -0.08567288 0.11375767 -0.08322126 0.16787845
0.04565524 -0.12086928 -0.06537887 0.13491406 -0.07869831 0.12082104 -0.024436751 0.012607352
0.016501017 0.02250849 0.0350097 0.04287903 -0.08030609 -0.085239984 0.04884131 -0.081386395
-0.12812479 0.16164681 0.13088046 0.10087204 0.14956215 0.13758206 -0.007956807 -0.11695509
-0.0220356 0.1595885 0.14409024 -0.028865939 -0.01050308 -0.09005565 0.012036488 -0.05907263
-0.044383153 0.0033884572 0.048485424 0.09215923 -0.09863896 0.18654403 0.010675096 -0.10769033
0.005434438 -0.028245233 0.081586696 -0.0892431 -0.09983498 -0.15731314 -0.05439427 0.0046589803
-0.12606527 0.12318036 0.039222367 -0.0024027296 0.041172564 0.014210557 0.004343484 0.020576395
-0.08086634 -0.104311064 -0.09022542 -0.13395774 0.055424675 -0.022413695 0.10421439 -0.112666845
-0.07704492 -0.026035797 -0.005662163 -0.12078241 -0.06893406 0.00760142 -0.014326589 0.037747968
00000000: dc81 2ebd 0fd9 693b 7561 163d 446b fcbc
00000010: 362c a3bd b151 ff3c 5d9c 09bd 884d 063c
00000020: 1c01 cc3d 2075 b93d e882 a63d 050b 2e3d
00000030: 9d9b 873b b9f7 a4bd a944 01be 6347 9cbd
00000040: 6955 e7bd 52cd 023e 720d ba3d fada a8bd
00000050: 9cf0 2d3d cdb9 e5bd efb0 b83d 95ae 04be
00000060: 0ae5 d5bd cad9 94bd 0815 8cbd ba66 d23c
00000070: db6f 82bc b0f3 b73d e49f 713d 0675 203d
00000080: 541f 473d 71bf 6a3d 1265 b2bc 2689 edbc
00000090: a772 a5bd 6880 aa3d 5bc5 903d bd41 733d
000000a0: 61fa 26bc c71f 273d 2ceb 01be c376 4f3d
000000b0: 6e1d 513d 830a f03c 5c80 d2bd 0f95 d43c
000000c0: ae9b 04be 9b9c fbbd 55ee abbd 077f 4cbc
000000d0: 9529 0c3e 6290 04bd 6df0 9f3d 18bb a3bd
000000e0: 0c36 523b ea6a 10bc 6fa5 a3bc 0dd6 e9bd
000000f0: 46e6 58bd b44e cb3c 8315 fcbd 2609 213d
00000100: 6eb1 c33c 13f0 973c d044 bc3d 9924 7cbd
00000110: 1752 e03c e230 aabd d78a 1b3e e2b4 383d
00000120: d424 ffbc f6b6 92bd 0270 2cbd e1d2 513d
00000130: e04e 23bd d9d4 16bc 12b6 c13c 30ff 563c
00000140: 9f39 973d 6700 1dbd d89c 46bd be84 223e
00000150: 666a 003d 7830 39be b308 0fbe cdc8 a7bc
00000160: 665d 3c3d 7092 dfbd c3ce f63d 00b4 5dbd
00000170: b5ab 38be b2d2 2b3d 0342 56be b070 51bd
00000180: b0fc 8dbd ddcf e73d 4c90 a8bb 106c a0bd
00000190: 9217 0a3e f872 07be 248b d2bd a3e6 823d
000001a0: dc67 133e 69ae 1dbe 5c87 0ebd f705 c1bd
000001b0: 30b9 853d 5ee5 a6bd 965a 163e 37f8 92bd
000001c0: 2af0 263e 270c 753d c467 103e 1bb6 a43c
000001d0: 1e39 95bd 353d 71bd 64d7 c0bd e1eb 13be
000001e0: dab7 c53d 8f99 183e 3fbe 20bd 8325 fbbd
000001f0: 1745 e4bb 66b3 0abe 2feb 523e 490e 11be
00000200: 7559 f93d be29 01be e9ff b5bd d161 8cbd
00000210: 594b 77bd f5b4 093c 5c32 54bd 79b7 f13c
00000220: faf9 d03d 1ad2 19be 4eb1 0dbc 809f 6cbd
00000230: 598e d8bc 1810 043c 9208 75bd a7fb b93d
00000240: d954 ddbc 0b4d 123d 91be 78bd 572f d93d
00000250: 3756 193d 8a05 1b3d ebcf e5bc 63b3 38bd
00000260: 81b0 ef3d 91bf b63a 1c64 d1bc 3153 edbd
00000270: 554e f73c 9da0 a33d eab6 84bd 3507 b33d
00000280: 68e8 c03d b5d7 0e3e 0b5c 53bd 2b93 69bd
00000290: ebc5 8cbd 587d f83d d448 be3d 08ac 00be
000002a0: 4bd4 a53d f474 bd3d 84b5 ba3d 41fd 163d
000002b0: fa39 903c 9c05 d4ba f51c e7bd 867f 073d
000002c0: 5752 07bc d275 a03d e7a0 a03d e126 f13d
000002d0: 4375 afbd c8f9 e83d e86f aabd 54e8 2b3e
000002e0: fd00 3b3d 508a f7bd 5be5 85bd e926 0a3e
000002f0: 942c a1bd 0571 f73d 952f c8bc 118f 4e3c
00000300: 242d 873c ba63 b83c 5566 0f3d eca1 2f3d
00000310: 8577 a4bd 4d92 aebd d30d 483d e9ad a6bd
00000320: 2533 03be be86 253e 8705 063e 0096 ce3d
00000330: d226 193e 50e2 0c3e 445d 02bc 2686 efbd
00000340: 0184 b4bc 2b6b 233e 648c 133e 4378 ecbc
00000350: 1c15 2cbc 196f b8bd b134 453c 24f6 71bd
00000360: 1ccb 35bd e110 5e3b a798 463d fabd bc3d
00000370: 3903 cabd 6605 3f3e 99e6 2e3c bf8c dcbd
00000380: 5f13 b23b 8c62 e7bc ed16 a73d 16c5 b6bd
00000390: 4876 ccbd b216 21be 87cc 5ebd 5caa 983b
000003a0: 4117 01be fc45 fc3d a2a7 203d 1d77 1dbb
000003b0: 90a4 283d 65d3 683c c953 8e3b d48f a83c
000003c0: 409d a5bd 0aa1 d5bd 1bc8 b8bd 382c 09be
000003d0: fc04 633d ed9c b7bc 5b6e d53d e0bd e6bd
000003e0: bac9 9dbd 0649 d5bc aa89 b9bb c55c f7bd
000003f0: 4d2d 8dbd 5515 f93b 12ba 6abc 9d9d 1a3d

fc2.bias f4 [32]
0.042078033 0.019317947 -0.007400545 0.09528998 -0.083444275 0.13567685 -0.04585592 0.048949216
0.0005564881 0.047132604 0.068352 0.03399275 0.13817544 0.0033497266 0.07059189 -0.075577505
0.15937662 -0.03614585 0.053451248 -0.080272295 0.074528046 -0.022122014 0.054725762 0.091395184
-0.025207471 0.16028908 0.1033982 -0.056724418 0.1253988 0.11010129 0.14174886 -0.0038212198
00000000: 045a 2c3d ac40 9e3c 4580 f2bb 6527 c33d
00000010: d5e4 aabd dfee 0a3e 6bd3 3bbd f97e 483d
00000020: 49e1 113a 1e0e 413d 22fc 8b3d fb3b 0b3d
00000030: dd7d 0d3e 1687 5b3b 7b92 903d 61c8 9abd
00000040: a033 233e ac0d 14bd b2ef 5a3d cd65 a4bd
00000050: 29a2 983d 3a39 b5bc 1f28 603d 662d bb3d
00000060: e67f cebc d222 243e 6fc2 d33d dd57 68bd
00000070: 8b68 003e c97c e13d 9d26 113e 6e6d 7abb

fc3.weight f4 [16, 32]
0.07491617 0.026733303 -0.13281494 -0.10094463 -0.14637658 -0.074130565 0.054193247 0.07810182
0.07916645 0.17736423 -0.027980207 0.12548783 0.14265028 0.10688128 0.16332638 -0.13205421
0.14553376 -0.17710216 -0.112373315 0.019312114 -0.050283145 -0.15960686 -0.08327153 -0.12684555
0.09986449 0.05852032 -0.07368932 0.09980822 -0.030799566 0.23694117 -0.012574453 -0.038579088
0.07355237 -0.115629055 0.15806939 0.028554667 0.04669437 0.19175923 0.011950971 0.0018915806
0.11331297 -0.13724294 0.06035677 0.23851416 -0.06868722 0.009250441 0.004654687 0.15957433
-0.06424892 0.07028952 0.13453954 0.23098356 0.16892342 0.13442758 -0.07089006 0.029552486
-0.0690593 -0.0764758 -0.018881408 0.16647619 0.11905088 -0.082821675 0.267087 0.0966736
0.19282809 -0.12324016 -0.14794692 0.040009715 0.1620581 -0.14752936 0.048987888 -0.03398151
0.085228525 -0.17894977 -0.0019618217 0.05128095 -0.016382957 -0.1908379 0.09095375 -0.21752457
0.016268782 0.05812111 -0.21404491 0.010592351 0.048842076 0.028291147 0.12480533 -0.026401808
0.12024906 -0.12110831 0.15341602 0.17662516 -0.024756523 -0.07477667 -0.1588321 0.04159558
0.018975025 -0.039465953 0.04590498 0.08155087 0.021573765 0.20643044 0.020509677 0.20902325
0.14564437 -0.013016697 -0.024318729 0.05965861 0.007108533 -0.19341107 0.091614574 -0.0147697935
-0.18124576 0.02533629 -0.018361032 -0.050440144 -0.12017817 0.05183234 0.19502637 -0.12512057
-0.034853723 -0.059637375 0.08048378 0.13888109 0.09879533 -0.07511319 -0.077199645 0.07628484
0.09761962 0.15119526 0.061800968 -0.082100056 -0.10447246 0.0685397 -0.17955367 0.087628834
-0.110956945 0.15674867 -0.17814377 -0.13415031 0.12953396 -0.023648627 0.0053072344 0.084198594
0.14100064 -0.037159428 0.05448695 0.18239309 0.052805033 -0.09130058 -0.181483 -0.14187327
-0.11514537 0.13112582 -0.09768968 -0.112441406 0.0359097 0.16063212 0.09110546 0.04645166
-0.18542853 -0.09889325 -0.1724236 -0.13195147 -0.11188 -0.028490331 -0.15219903 -0.016432405
-0.1379887 -0.0064863106 -0.07178566 0.0151775945 -0.18672219 0.12430901 -0.111212276 0.0063590426
-0.019588657 -0.07111858 -0.17525768 -0.17131382 -0.1378335 -0.22225925 0.022384308 -0.07528566
0.06765572 -0.00806047 -0.025436487 -0.043164987 -0.01754412 -0.12748195 -0.034365177 -0.05109419
0.037211083 -0.030235393 -0.05847188 -0.13010478 0.0439282 0.12778778 0.090552226 -0.019667083
-0.013429984 0.024257245 -0.1672073 -0.03610673 -0.19008134 0.13449259 -0.13034779 -0.014576393
-0.16771615 0.082380995 -0.04754161 0.09652878 -0.00531405 -0.039225638 -0.15644188 0.10353022
0.10647857 -0.017075308 -0.17256743 -0.17357467 0.23709674 -0.0024930164 0.25675756 0.14164226
-0.15105905 0.0842545 0.12707624 -0.09065563 0.009007016 -0.14526421 -0.19570106 0.1397969
-0.12973054 0.20057893 -0.08894713 -0.021823252 0.07659804 0.009154931 0.038937878 0.09416712
0.16195817 -0.09227373 0.1527601 0.1699927 0.0787398 -0.09426057 -0.11369828 0.10075546
-0.09466419 0.24662364 -0.10194937 -0.051668156 0.09704219 0.20136192 -0.029221924 0.06975882
00000000: a66d 993d cdff da3c a400 08be 0fbc cebd
00000010: bee3 15be c4d1 97bd bdf9 5d3d d9f3 9f3d
00000020: 0522 a23d f89e 353e bf36 e5bc e27f 003e
00000030: ea12 123e 93e4 da3d 083f 273e 3839 07be
00000040: cd06 153e 455a 35be fb23 e6bd 7034 9e3c
00000050: b3f5 4dbd fb6f 23be 448a aabd cde3 01be
00000060: c185 cc3d 01b3 6f3d 6dea 96bd 4168 cc3d
00000070: 5f4f fcbc b5a0 723e 1405 4ebc 1b05 1ebd
00000080: a0a2 963d edce ecbd f1dc 213e 7aeb e93c
00000090: 9942 3f3d 885c 443e 01ce 433c eaee f73a
000000a0: a110 e83d 6a89 0cbe a938 773d 0e3d 743e
000000b0: e3ab 8cbd 298f 173c 5886 983b 7467 233e
000000c0: f094 83bd f4f3 8f3d bcc4 093e f486 6c3e
000000d0: 43fa 2c3e 62a7 093e cf2e 91bd 0e18 f23c
000000e0: f66e 8dbd 589f 9cbd 2fad 9abc bc78 2a3e
000000f0: f3d0 f33d 699e a9bd a1bf 883e cffc c53d
00000100: ba74 453e 5665 fcbd 667f 17be 3ae1 233d
00000110: 8ff2 253e f011 17be 86a7 483d 3230 0bbd
00000120: 4b8c ae3d 9c3e 37be e891 00bb f90b 523d
00000130: 8d35 86bc 036b 43be f645 ba3d c3be 5ebe
00000140: 1c46 853c 6710 6e3d 972e 5bbe 8a8b 2d3c
00000150: a10e 483d d6c2 e73c f099 ff3d 9b48 d8bc
00000160: 2445 f63d a207 f8bd 1719 1d3e 3add 343e
00000170: 31ce cabc 8324 99bd e2a4 22be 2060 2a3d
00000180: 8371 9b3c 0da7 21bd dc06 3c3d 2404 a73d
00000190: 77bb b03c 8062 533e e903 a83c 310a 563e
000001a0: cc23 153e fc43 55bc 1238 c7bc 965c 743d
000001b0: b2ee e83b 8d0d 46be 6ca0 bb3d 01fd 71bc
000001c0: 7d98 39be 0d8e cf3c e069 96bc 539a 4ebd
000001d0: f91f f6bd 264e 543d feb4 473e 9b1f 00be
000001e0: c7c2 0ebd 5246 74bd aed4 a43d d836 0e3e
000001f0: 3555 ca3d f2d4 99bd d91a 9ebd 3a3b 9c3d
00000200: ccec c73d eed2 1a3e 0323 7d3d 1324 a8bd
00000210: a8f5 d5bd 8b5e 8c3d ebdc 37be bf76 b33d
00000220: 653d e3bd b982 203e 526b 36be b35e 09be
00000230: 8da4 043e c4ba c1bc 4fe8 ad3b 5070 ac3d
00000240: 7962 103e 7c34 18bd b52d 5f3d 41c5 3a3e
00000250: 174a 583d ccfb babd aed6 39be 3a47 11be
00000260: 56d1 ebbd d945 063e 8711 c8bd ae47 e6bd
00000270: 0d16 133d bf7c 243e 8095 ba3d 1944 3e3d
00000280: fae0 3dbe 8b88 cabd d08f 30be 491e 07be
00000290: 5721 e5bd 8e64 e9bc 10da 1bbe 409d 86bc
000002a0: e94c 0dbe 1e8b d4bb 5c04 93bd 72ab 783c
000002b0: 1a34 3fbe b995 fe3d 43c3 e3bd 845f d03b
000002c0: 6478 a0bc 9ea6 91bd c076 33be e46c 2fbe
000002d0: 3a24 0dbe ee97 63be 4c5f b73c 5e2f 9abd
000002e0: 158f 8a3d 1010 04bc 2e60 d0bc c5cd 30bd
000002f0: b0b8 8fbc a18a 02be 80c2 0cbd 2448 51bd
00000300: a66a 183d 37b0 f7bc 3680 6fbd 303a 05be
00000310: 0eee 333d cdda 023e 7273 b93d dd1c a1bc
00000320: 7009 5cbc 21b7 c63c 6438 2bbe a7e4 13bd
00000330: afa4 42be 6db8 093e e479 05be d3d1 6ebc
00000340: c8bd 2bbe 5eb7 a83d feba 42bd e2b0 c53d
00000350: 7b21 aebb 10ab 20bd 4d32 20be a707 d43d
00000360: 7011 da3d 84e1 8bbc 84b5 30be 8fbd 31be
00000370: 7dc9 723e e061 23bb ba75 833e ab0a 113e
00000380: 39af 1abe a08d ac3d 4620 023e a9a9 b9bd
00000390: 2a92 133c 24c0 14be dc65 48be eb26 0f3e
000003a0: 15d8 04be 9064 4d3e ea29 b6bd adc6 b2bc
000003b0: 6fdf 9c3d 90fe 153c 537d 1f3d b1da c03d
000003c0: 5dd8 253e 02fa bcbd 256d 1c3e 9112 2e3e
000003d0: 5542 a13d b00b c1bd a5da e8bd e158 ce3d
000003e0: 4ddf c1bd e88a 7c3e d5ca d0bd fda1 53bd
000003f0: 0ebe c63d d231 4e3e d162 efbc b6dd 8e3d

fc3.bias f4 [16]
0.047810286 0.21304262 0.058791175 -0.049525026 0.13150263 -0.013746874 -0.03340776 0.20812592
-0.036862966 0.19954038 -0.16325656 0.15712276 0.10560812 0.14631428 0.16025014 -0.049469493
00000000: b8d4 433d d827 5a3e 04cf 703d c1da 4abd
00000010: a0a8 063e 923a 61bc 93d6 08bd f61e 553e
00000020: 9ffd 16bd 5054 4c3e ba2c 27be cae4 203e
00000030: 1249 d83d 69d3 153e 9d18 243e 86a0 4abd

fc4.weight f4 [8, 16]
0.09849264 -0.34478882 -0.36541554 -0.32108974 0.16584674 0.09614085 -0.17848176 0.14617644
-0.14718388 0.16800752 0.109972045 -0.32412785 -0.39409578 0.18415278 -0.0044692447 0.22337583
-0.17348045 0.15535092 -0.0196219 -0.15370017 -0.056330997 -0.039395783 -0.06010686 -0.094008066
0.15440895 0.103087634 0.15496957 0.1121548 0.09519494 -0.1234014 -0.033897977 0.0071874443
-0.15947132 0.14406824 0.082329795 -0.056492604 0.043134533 -0.18103962 0.0043292907 -0.022273606
0.13200156 0.117690206 -0.016883256 0.11641507 0.10931778 -0.08568675 0.05023617 -0.036316738
-0.12869786 0.1137321 0.21464308 0.08757197 -0.4846645 0.07460636 -0.36656803 -0.4088959
-0.26513612 -0.4780396 -0.20714448 -0.3764208 0.15263493 -0.009179504 -0.12458838 -0.26072603
-0.27785015 0.18639424 -0.20781718 -0.012429211 0.18589912 -0.15798606 0.10782178 0.097766094
0.23519343 0.1992074 -0.17155787 0.16726713 -0.18808779 -0.32170004 -0.5046512 -0.1943575
-0.317779 0.131638 -0.055451978 -0.23717733 -0.13818496 0.08335914 0.008037174 -0.084318325
-0.1407013 0.06311033 -0.012659401 0.08828369 0.07310514 -0.21515624 0.096118875 -0.12202456
0.0841004 0.1283321 0.0994622 -0.20064114 0.025170365 0.10082785 -0.1389638 0.010552714
-0.1348274 0.12864794 -0.112704374 -0.027025351 0.13027672 0.1147648 0.12315033 -0.016232325
-0.20389968 0.10733248 0.22711748 0.10179016 -0.25674397 -0.112568416 -0.43509346 -0.5279844
-0.4646361 -0.36565307 0.07020919 -0.44608533 0.15816423 0.020787943 -0.15479241 -0.35426238
00000000: 82b6 c93d 2988 b0be bf17 bbbe e065 a4be
00000010: bad3 293e 7ee5 c43d ecc3 36be 47af 153e
00000020: 5fb7 16be 2a0a 2c3e 0639 e13d 16f4 a5be
00000030: ecc6 c9be 8c92 3c3e be72 92bb a2bc 643e
00000040: dca4 31be 5014 1f3e 1bbe a0bc 9463 1dbe
00000050: 55bb 66bd 795d 21bd 9c32 76bd 4d87 c0bd
00000060: 611d 1e3e 9c1f d33d 58b0 1e3e 6ab1 e53d
00000070: 91f5 c23d e0b9 fcbd 9bd8 0abd a784 eb3b
00000080: 734c 23be a086 133e 869c a83d ca64 67bd
00000090: d6ad 303d 7362 39be b9dc 8d3b 2377 b6bc
000000a0: 6b2b 073e 9007 f13d c14e 8abc 066b ee3d
000000b0: 00e2 df3d 897c afbd 71c4 4d3d dcc0 14bd
000000c0: 5fc9 03be 60ec e83d 65cb 5b3e ef58 b33d
000000d0: f225 f8be 38cb 983d ceae bbbe ce5a d1be
000000e0: ecbf 87be 9bc1 f4be af1d 54be 3aba c0be
000000f0: 554c 1c3e a165 16bc 3128 ffbd e27d 85be
00000100: 6042 8ebe 22de 3e3e 07ce 54be e4a3 4bbc
00000110: 575c 3e3e 19c7 21be aad1 dc3d 9739 c83d
00000120: 8cd6 703e 06fd 4b3e deac 2fbe 1348 2b3e
00000130: 169a 40be deb5 a4be d230 01bf a705 47be
00000140: eeb3 a2be 1dcc 063e 9d21 63bd 9dde 72be
00000150: 5c80 0dbe 32b8 aa3d 5aae 033c 16af acbd
00000160: 0014 10be fd3f 813d 6069 4fbc 14ce b43d
00000170: 26b8 953d eb51 5cbe f9d9 c43d 03e8 f9bd
00000180: d53c ac3d 7d69 033e d7b2 cb3d df74 4dbe
00000190: 1532 ce3c d57e ce3d 874c 0ebe 4ae5 2c3c
000001a0: 3210 0abe 49bc 033e 8dd1 e6bd 4564 ddbc
000001b0: 4367 053e cf09 eb3d 3d36 fc3d a7f9 84bc
000001c0: 14cb 50be 22d1 db3d 7c91 683e 5c77 d03d
000001d0: f273 83be 458a e6bd 92c4 debe fc29 07bf
000001e0: c8e4 edbe e136 bbbe d6c9 8f3d 4c65 e4be
000001f0: cef5 213e 7a4b aa3c e781 1ebe e161 b5be

fc4.bias f4 [8]
0.08099411 0.17804037 -0.0034453343 0.26506886 -0.40834856 0.27079943 -0.086447485 0.20314464
00000000: 3de0 a53d 3750 363e 1ecb 61bb 1bb7 873e
00000010: 1013 d1be 39a6 8a3e 610b b1bd 2605 503e
